weights.pt (torch_old, 253855 bytes, 26 tensors)

conv1.weight f4 [6, 1, 5, 5]
0.075866595 -0.1304177 -0.15291302 -0.0711611 -0.14853086 0.10856003 0.058586456 0.013212867
-0.05074713 -0.009260219 0.05639737 0.21672828 0.269283 0.10850365 0.0057006916 -0.085986264
0.04529896 0.056282986 0.1835982 0.10090278 -0.13071065 -0.13760096 -0.12445364 -0.14907117
0.064913236 0.023638716 0.25651196 0.16183603 -0.24031158 0.057462513 0.03756524 0.230598
0.17310202 -0.22114661 -0.21860972 0.049596917 0.32432258 -0.067185916 -0.081779525 -0.15532656
0.24642888 -0.07188327 -0.0044897106 -0.111219816 -0.08159945 -0.026423533 -0.13276874 -0.0442377
-0.14616206 -0.007986447 -0.1297756 -0.052433413 -0.006624423 -0.09739236 0.14295632 0.117692485
-0.09031997 -0.12247553 0.2736999 0.10110268 -0.07452992 0.13989793 0.27357668 0.2851749
-0.13263525 0.045679048 0.023974104 0.023683872 -0.23452729 -0.30821052 0.014300555 -0.11196279
-0.051590223 -0.0810775 0.08315561 0.07202299 0.17906241 0.2658251 -0.14673425 0.07283779
-0.2837545 -0.116785675 0.15364808 0.020204023 0.08997633 -0.24863589 -0.19907069 0.15803382
0.07101423 0.12134604 -0.050076652 -0.21579948 0.019875236 0.12922594 -0.10277555 -0.06190369
-0.009831452 -0.041114703 -0.116791435 -0.058708612 0.1048045 -0.09526231 0.053228535 0.08691025
-0.13930638 -0.17374519 0.19774273 0.027657488 -0.011346158 -0.03849602 0.020428114 0.12492844
0.17559026 -0.32183874 0.0019511571 -0.026772972 0.065539196 0.3620068 -0.16807553 -0.036824636
-0.24068439 -0.051799867 0.27007365 -0.050131343 0.12946351 -0.22600958 -0.2382432 -0.070618756
0.18536097 0.1373339 -0.22099501 0.05328731 0.27330267 0.25823745 -0.037324846 0.11745221
0.14087601 0.07855018 0.0014987127 -0.089520544 -0.03899024 0.0034908461 -0.13031697 0.075283095
0.08187291 0.0054452918 0.14889096 0.07587736 0.1049672 0.120075494
00000000: f25f 9b3d 388c 05be 3b95 1cbe e9bc 91bd
00000010: 7918 18be b954 de3d 5af8 6f3d c87a 583c
00000020: 39dc 4fbd 2cb8 17bc ee00 673d 05ee 5d3e
00000030: 76df 893e 2937 de3d decc ba3b 9119 b0bd
00000040: 678b 393d fd88 663d 2b01 3c3e 1ea6 ce3d
00000050: 03d9 05be 44e7 0cbe 8de1 febd 1da6 18be
00000060: 3bf1 843d fba5 c13c 8955 833e 58b8 253e
00000070: 3d14 76be d05d 6b3d 02de 193d e221 6c3e
00000080: a841 313e 4274 62be 3adb 5fbe 2326 4b3d
00000090: 9c0d a63e c598 89bd 067c a7bd ed0d 1fbe
000000a0: da57 7c3e 8937 93bd 6c1e 93bb 37c7 e3bd
000000b0: 9d1d a7bd 2a76 d8bc 87f4 07be 9732 35bd
000000c0: 82ab 15be 96d9 02bc e5e3 04be 6bc4 56bd
000000d0: b011 d9bb a575 c7bd 2463 123e c208 f13d
000000e0: adf9 b8bd 73d4 fabd 6522 8c3e ec0e cf3d
000000f0: 25a3 98bd 6741 0f3e 3e12 8c3e 7202 923e
00000100: 89d1 07be f419 3b3d 5765 c43c ae04 c23c
00000110: ec27 70be c5cd 9dbe e04c 6a3c bf4c e5bd
00000120: 4550 53bd f60b a6bd 7d4d aa3d ca80 933d
00000130: 235c 373e 3a1a 883e 8141 16be fb2b 953d
00000140: 4548 91be 542d efbd ec55 1d3e e882 a53c
00000150: 8345 b83d 689a 7ebe 30d9 4bbe 9ed3 213e
00000160: e96f 913d 4684 f83d 2d1d 4dbd 8afa 5cbe
00000170: 64d1 a23c ce53 043e fd7b d2bd b98e 7dbd
00000180: 1914 21bc e467 28bd 5930 efbd 7178 70bd
00000190: bea3 d63d e318 c3bd 2a06 5a3d 00fe b13d
000001a0: 55a6 0ebe 42ea 31be 127d 4a3e f591 e23c
000001b0: 3ce5 39bc 01ae 1dbd dc58 a73c 7bda ff3d
000001c0: efcd 333e 0cc8 a4be f8bd ff3a fe52 dbbc
000001d0: 6a39 863d f558 b93e fe1b 2cbe 6ed5 16bd
000001e0: f875 76be 192c 54bd 1847 8a3e 8656 4dbd
000001f0: 1592 043e 0e6f 67be 07f6 73be 91a0 90bd
00000200: 44cf 3d3e 42a1 0c3e 844c 62be cb43 5a3d
00000210: 54ee 8b3e b337 843e f0e1 18bd c98a f03d
00000220: cd41 103e ebde a03d 7470 c43a 8c56 b7bd
00000230: 3bb4 1fbd aec6 643b d071 05be 062e 9a3d
00000240: fcac a73d 6b6e b23b df76 183e 9765 9b3d
00000250: 0bf9 d63d 24ea f53d

conv1.bias f4 [6]
-0.30811203 -0.219732 0.001036049 0.08947989 -0.56593406 -0.4218877
00000000: dcc0 9dbe 6d01 61be 09cc 873a 3c41 b73d
00000010: 0ee1 10bf aa01 d8be

conv1_bn.weight f4 [6]
0.40593404 0.3582468 0.69601035 0.33971104 0.33574307 0.5417998
00000000: 96d6 cf3e 206c b73e bc2d 323f 9bee ad3e
00000010: 84e6 ab3e 64b3 0a3f

conv1_bn.bias f4 [6]
0.07665301 0.06823929 0.15229122 0.06313323 0.15624973 0.16452421
00000000: 41fc 9c3d 0ac1 8b3d 3bf2 1b3e ff4b 813d
00000010: eeff 1f3e 0979 283e

conv1_bn.running_mean f4 [6]
0.15177876 0.41829523 0.26627988 0.5125747 0.11233082 0.26036516
00000000: e46b 1b3e cb2a d63e d655 883e 1838 033f
00000010: b30d e63d 954e 853e

conv1_bn.running_var f4 [6]
0.21048942 0.7069617 0.31206706 0.2768001 0.12787168 0.38031307
00000000: 8a8a 573e 71fb 343f 41c7 9f3e beb8 8d3e
00000010: cbf0 023e 65b8 c23e

conv2.weight f4 [16, 6, 5, 5]
-0.09260949 -0.00070678716 -0.022754038 0.189381 0.07772014 -0.035070825 -0.23128828 -0.23049568
8.595331e-05 0.021990271 0.025242303 -0.10078135 0.12278896 0.16804092 0.10799547 -0.056604672
-0.03256776 0.15916698 0.016496977 0.060171593 -0.13159606 -0.050115213 -0.09996362 -0.041064776
-0.16389826 -0.23018801 0.022522824 -0.09349711 -0.038843717 0.001541469 -0.23301968 0.047058728
0.080390856 -0.10983838 -0.0043899277 -0.15400334 0.07479443 -0.030630453 0.04453292 -0.17745419
0.0027964835 0.015431253 0.011282111 -0.01940049 -0.009728548 -0.025377428 0.005151165 0.033355653
-0.085941404 0.20406394 -0.10107208 0.027189275 0.12709272 0.15772414 -0.045965992 -0.22060932
-0.14782016 0.072131485 -0.016815132 0.11250984 -0.116679914 -0.13835272 0.17508319 -0.031200944
-0.12147067 0.02531035 0.10485279 0.17198573 -0.12647307 -0.1922969 -0.011991485 -0.021641267
-0.218045 -0.009180509 -0.15992455 0.11765073 -0.025378203 -0.13286941 -0.022768877 0.1150852
0.1583143 0.06839188 -0.038707394 0.059959106 -0.06888941 0.03889835 -0.043797996 -0.04242503
-0.1465288 -0.025215909 0.023682626 0.09109945 -0.11728277 -0.015585749 0.18720469 0.044862866
-0.045016166 -0.029993474 0.06256549 -0.0239257 0.024218619 0.28963897 -0.045685958 -0.3112473
-0.07605541 -0.11907415 0.25596026 -0.03042994 -0.2905878 -0.09855834 -0.13456447 0.12234757
-0.073725946 -0.2015227 -0.08932442 -0.0041482192 -0.16039155 -0.0078117363 -0.09739485 0.12553412
0.0054376964 -0.14874206 -0.2260333 -0.022566313 0.027308788 0.13505405 0.052447997 -0.039300166
-0.050470743 -0.15301682 0.08340125 0.062940165 -0.10773226 -0.093983926 -0.05864529 0.06817876
0.059471987 -0.2461148 0.028784145 -0.08683055 0.07052205 -0.08067593 -0.028474174 0.020892344
-0.11451205 0.11452025 0.095019765 0.09220531 0.05913059 -0.11665755 0.0112104565 0.03410073
0.24292956 0.11449544 -0.026752388 0.055434167 0.10814578 0.07018177 -0.048004154 0.00035113166
0.066166 -0.05824096 -0.08139171 -0.09810957 -0.055740666 0.09319141 -0.07797674 -0.09363366
0.03206604 0.1173599 0.012587355 -0.026810225 0.08772634 0.05004637 -0.06381127 0.075351745
0.058099873 -0.1132686 -0.111709885 -0.13265139 -0.13547438 -0.045307156 -0.10089782 -0.052547127
0.044535264 -0.24048437 -0.20469223 -0.035357557 0.04703805 0.112121604 -0.09024197 -0.008583246
0.030640919 0.027103461 0.15124531 0.0846601 0.14576256 -0.11058246 -0.10094207 -0.13928987
0.017133782 -0.022013564 -0.009341102 -0.048604507 -0.20819317 0.029550832 0.02206531 -0.10171794
-0.11796861 0.02790349 -0.08943905 -0.022690598 0.061289493 0.09103012 -0.03289913 0.17709358
0.24020626 0.025265584 0.07020894 -0.08425305 0.17896977 -0.011877714 -0.050985053 -0.026201105
-0.104391664 -0.070499666 0.03219914 0.06460253 0.06428062 0.22143406 0.026211327 -0.10686296
-0.040503465 0.05597052 0.1001011 -0.062199254 0.06332547 0.026614437 -0.13940836 -0.056419674
0.14400838 -0.06398713 -0.12569119 -0.15104504 -0.05046114 -0.13798097 -0.06714346 -0.022121295
-0.026311507 0.14823009 0.012507453 0.02136674 0.11057846 0.14311185 0.018305056 0.086472064
00000000: 0baa bdbd af47 39ba ad66 babc 18ed 413e
00000010: bd2b 9f3d 6da6 0fbd d6d6 6cbe 0f07 6cbe
00000020: d541 b438 f124 b43c f2c8 ce3c 7466 cebd
00000030: c778 fb3d eb12 2c3e bb2c dd3d 4dda 67bd
00000040: c665 05bd abfc 223e ab24 873c 7d76 763d
00000050: 1ec1 06be 9c45 4dbd bab9 ccbd 8a33 28bd
00000060: f2d4 27be 68b6 6bbe c981 b83c 6a7b bfbd
00000070: 971a 1fbd 1e0b ca3a b69c 6ebe a7c0 403d
00000080: f6a3 a43d f2f2 e0bd 62d9 8fbb 0db3 1dbe
00000090: d22d 993d b7ec fabc 2768 363d 8db6 35be
000000a0: 3545 373b 5ed3 7c3c 9ad8 383c c7ed 9ebc
000000b0: 7d64 1fbc 53e4 cfbc 1bcb a83b f09f 083d
000000c0: 0c02 b0bd 23f6 503e e1fe cebd 0bbc de3c
000000d0: 9824 023e 7082 213e d646 3cbd 69e7 61be
000000e0: 2b5e 17be acb9 933d e3bf 89bc 8f6b e63d
000000f0: e1f5 eebd 56ac 0dbe 0249 333e 1f99 ffbc
00000100: 9dc5 f8bd a757 cf3c 0fbd d63d 071d 303e
00000110: 2882 01be 7be9 44be ef77 44bc 0749 b1bc
00000120: 3047 5fbe d869 16bc 43c3 23be def2 f03d
00000130: f3e5 cfbc eb0e 08be cc85 babc cab1 eb3d
00000140: 251d 223e 0b11 8c3d a58b 1ebd ae97 753d
00000150: e415 8dbd e053 1f3d 8765 33bd dec5 2dbd
00000160: a50b 16be 9891 cebc 1102 c23c 5992 ba3d
00000170: f331 f0bd 5f5b 7fbc 96b2 3f3e 20c2 373d
00000180: df62 38bd e0b4 f5bc 5622 803d d4ff c3bc
00000190: 2066 c63c 8f4b 943e 3321 3bbd ce5b 9fbe
000001a0: f0c2 9bbd 26dd f3bd 390d 833e 3648 f9bc
000001b0: edc7 94be f4d8 c9bd 45cb 09be 5d91 fa3d
000001c0: a1fd 96bd f75b 4ebe b9ef b6bd c9ed 87bb
000001d0: af3d 24be 98f9 ffbb f376 c7bd 048c 003e
000001e0: b42e b23b d74f 18be 4675 67be fddc b8bc
000001f0: aeb6 df3c 9c4b 0a3e b6d3 563d 36f9 20bd
00000200: 69ba 4ebd 71b0 1cbe 46ce aa3d c6e6 803d
00000210: bba2 dcbd a57a c0bd 0b36 70bd 4ea1 8b3d
00000220: e698 733d 8505 7cbe bacc eb3c 37d4 b1bd
00000230: dd6d 903d 6c39 a5bd ac42 e9bc 6c26 ab3c
00000240: 4b85 eabd 9889 ea3d b999 c23d 23d6 bc3d
00000250: eb32 723d 27ea eebd 10ac 373c 35ad 0b3d
00000260: 87c2 783e 967c ea3d d327 dbbc f00e 633d
00000270: 897b dd3d 76bb 8f3d 01a0 44bd 1818 b839
00000280: 0a82 873d 138e 6ebd b2b0 a6bd aced c8bd
00000290: 5350 64bd 23db be3d 45b2 9fbd 01c3 bfbd
000002a0: ae57 033d 635a f03d 323b 4e3c 1ea1 dbbc
000002b0: dea9 b33d 6cfd 4c3d 7caf 82bd 0452 9a3d
000002c0: 22fa 6d3d 5ef9 e7bd 27c8 e4bd c4d5 07be
000002d0: ccb9 0abe ff93 39bd 84a3 cebd a83b 57bd
000002e0: 9c6a 363d 8941 76be d79a 51be 16d3 10bd
000002f0: f8aa 403d 03a0 e53d c8d0 b8bd bea0 0cbc
00000300: aa02 fb3c 1408 de3c 0de0 1a3e 4662 ad3d
00000310: c842 153e 0f79 e2bd b7ba cebd 01a2 0ebe
00000320: 255c 8c3c ca55 b4bc 6c0b 19bc 8515 47bd
00000330: 9730 55be 9614 f23c 4fc2 b43c 7f51 d0bd
00000340: 8799 f1bd dc95 e43c d22b b7bd a2e1 b9bc
00000350: b10a 7b3d 006e ba3d 3dc1 06bd 0558 353e
00000360: a1f8 753e c5f9 ce3c b4c9 8f3d dd8c acbd
00000370: da43 373e be9a 42bc b4d5 50bd b3a3 d6bc
00000380: 4ccb d5bd 2162 90bd 3fe3 033d 554e 843d
00000390: 8fa5 833d 9cbf 623e 23b9 d63c f8da dabd
000003a0: f6e6 25bd 5841 653d ce01 cd3d a5c4 7ebd
000003b0: c9b0 813d 8506 da3c 11c1 0ebe 5118 67bd
000003c0: ef76 133e af0b 83bd 31b5 00be 8dab 1abe
000003d0: 57b0 4ebd e24a 0dbe 8382 89bd b837 b5bc
000003e0: 3b8b d7bc a1c9 173e 0fec 4c3c 4d09 af3c
000003f0: f676 e23d ea8b 123e 7cf4 953c 4418 b13d

conv2.bias f4 [16]
-0.38670215 -0.10917027 -0.15707538 -0.122183144 -0.1430041 -0.18693641 0.0606355 -0.2698398
0.04849945 0.21858819 -0.15835644 -0.15924266 -0.09481488 -0.19071524 -0.13607574 0.033956476
00000000: d3fd c5be aa94 dfbd 5ed8 20be 283b fabd
00000010: ab6f 12be 426c 3fbe ee5c 783d 7128 8abe
00000020: 5ca7 463d 95d5 5f3e 3128 22be 8210 23be
00000030: 4e2e c2bd db4a 43be 7057 0bbe f215 0b3d

conv2_bn.weight f4 [16]
0.34309098 0.707581 0.7099053 0.64419967 0.8056738 0.45562983 0.65100783 0.5307805
0.6282999 0.6102209 0.60943496 0.51624835 0.33351558 0.56083596 0.56978035 0.67136484
00000000: 9fa9 af3e 0724 353f 5bbc 353f 45ea 243f
00000010: a340 4e3f 5048 e93e 73a8 263f 3be1 073f
00000020: 43d8 203f 7037 1c3f ee03 1c3f da28 043f
00000030: 8ec2 aa3e f292 0f3f 20dd 113f 91de 2b3f

conv2_bn.bias f4 [16]
0.07732512 0.123485595 0.13927168 0.14333248 0.19639063 0.08177325 0.14422448 0.08068144
0.14624526 0.09904183 0.07902221 0.0864913 0.030400215 0.059384417 0.16599567 0.10433975
00000000: a25c 9e3d 04e6 fc3d 3c9d 0e3e c0c5 123e
00000010: a01a 493e bc78 a73d 95af 133e 503c a53d
00000020: 51c1 153e 71d6 ca3d 65d6 a13d 5a22 b13d
00000030: df09 f93c 133d 733d c5fa 293e 14b0 d53d

conv2_bn.running_mean f4 [16]
0.18181129 0.77943355 0.31931353 0.47017956 0.24947129 0.15794957 0.46639496 0.16634794
0.5268147 0.9339476 0.6827666 0.26813376 0.44936508 0.5153486 0.5296011 0.21597286
00000000: bd2c 3a3e f588 473f 107d a33e 60bb f03e
00000010: 6775 7f3e 88bd 213e 52cb ee3e 1d57 2a3e
00000020: 54dd 063f 3117 6f3f cbc9 2e3f d448 893e
00000030: 2e13 e63e e3ed 033f f093 073f fd27 5d3e

conv2_bn.running_var f4 [16]
0.1496413 0.81134754 0.2109669 0.58127224 0.24770659 0.1531502 0.4003816 0.09938484
0.48143142 0.40353307 0.5317904 0.15941484 0.236015 0.45052558 0.53545886 0.12319525
00000000: 923b 193e 79b4 4f3f b507 583e 42ce 143f
00000010: cca6 7d3e 68d3 1c3e d1fe cc3e 478a cb3d
00000020: 2e7e f63e e39b ce3e 6a23 083f a53d 233e
00000030: ebad 713e 4aab e63e d513 093f cb4d fc3d

fc1.weight f4 [120, 400]
-0.14523935 0.072028264 0.043091528 0.026026698 0.19347566 -0.05380415 0.017290331 0.0067895246
-0.036686342 0.018555623 0.032481946 -0.16965976 -0.14156142 0.11103986 0.11031106 -0.07063194
-0.026540102 -0.030588374 0.15606391 -0.004185271 -0.18850276 -0.07784819 0.054409016 0.119511805
0.03521498 0.035808127 -0.038435295 -0.07668563 0.019452527 0.13548273 0.08412451 0.03696952
0.014984065 -0.018419217 0.15210137 0.049236186 0.022003585 -0.055826213 -0.03155317 -0.014470577
0.060963426 -0.030105842 -0.0793836 -0.036275227 0.0669556 0.004364602 -0.10436531 -0.033827797
0.09610405 -0.015998557 0.08872333 0.018541755 0.2199012 0.08122552 -0.08649908 0.047850806
-0.007941966 0.14230157 -0.048607595 0.036900908 0.022152625 0.016409615 0.026614318 -0.10425494
0.034642093 0.03372303 -0.021364944 0.001801144 0.04814724 -0.03067967 0.019842286 -0.007913833
0.016733518 0.07454844 0.06349194 -0.005327853 -0.032892358 -0.007546277 -0.031861816 -0.12489217
-0.029804153 -0.051915 0.029869035 -0.08867534 -0.08722062 0.08011548 0.051363856 0.17157449
0.07274727 -0.13536273 0.05286019 -0.0014995706 0.10805077 -0.017560346 0.071157016 -0.1327971
-0.01782843 -0.040878005 -0.104385085 -0.19504449 -0.026289767 0.03564409 -0.12276092 -0.113462806
-0.048046924 0.06678795 -0.03768481 -0.101837695 -0.08565495 -0.03973669 0.032938123 0.009007959
-0.10435155 -0.06432734 -0.08697667 0.06329864 -0.053474747 -0.07408985 0.04801473 0.021269295
0.005966987 -0.20942186 -0.07803653 -0.07227108 -0.073993586 0.08858117 -0.03197107 0.09683189
-0.12486267 -0.08880096 0.048009373 0.063047096 -0.16914451 -0.020111963 0.058284655 0.02701975
0.084805906 -0.041263234 -0.12985861 -0.028656207 0.048533395 0.010536389 -0.077756755 0.15836352
0.14275831 -0.08645913 -0.08203814 -0.051478975 0.01207811 0.14325494 -0.077493265 -0.031856887
-0.034787163 -0.033099283 0.012514579 0.112328224 0.0067065014 -0.108792305 0.02860125 0.043299317
-0.020273421 0.0964948 0.022369964 0.034731995 0.07774297 -0.023239883 0.10626207 -0.04971577
-0.07004785 -0.14404118 -0.0009877719 -0.060425412 -0.029083053 -0.04400268 -0.0819207 0.10967117
-0.061474662 -0.12739046 0.005045632 -0.058465563 0.06405949 -0.053210225 -0.06740825 -0.14420855
-0.10813944 -0.046530504 -0.09487389 0.0010055952 -0.20440817 0.05126769 0.06690993 0.063669346
-0.10908094 -0.14579165 -0.12701912 -0.01901288 -0.09017804 -0.10585563 -0.13576315 0.17422126
-0.0071077035 0.035550617 0.007265746 0.08922457 0.108052425 -0.12489843 -0.05611753 -0.035287533
-0.107747756 -0.11673235 0.041494887 -0.06974641 -0.016987203 0.05197896 -0.006924234 0.013962157
0.102273546 -0.11301297 -0.10098797 -0.016807439 0.06764061 -0.04482775 0.106721744 -0.041420836
-0.045764957 0.08513264 0.0688624 -0.16409288 0.021074265 0.06280301 0.15452537 0.0025997735
0.12794232 0.04032876 0.022783952 0.059841868 -0.019488275 0.053877275 0.02834044 -0.07094865
-0.0005048177 -0.0013035773 0.16418761 -0.023703119 -0.026360445 -0.1645373 0.012607307 0.095966704
0.015004831 -0.04434778 0.11500515 0.12578447 -0.068341315 -0.060175728 -0.06351116 0.09835555
00000000: a0b9 14be 8e83 933d be80 303d f135 d53c
00000010: 7c1e 463e be61 5cbd 74a4 8d3c a97a de3b
00000020: 6b44 16bd f601 983c ca0b 053d 4abb 2dbe
00000030: 7af5 10be de68 e33d c4ea e13d 7ba7 90bd
00000040: a16a d9bc 7894 fabc 38cf 1f3e 9924 89bb
00000050: de06 41be df6e 9fbd fddb 5e3d 9bc2 f43d
00000060: 953d 103d 8bab 123d 546e 1dbd 5b0d 9dbd
00000070: e85a 9f3c fcbb 0a3e 7949 ac3d 5a6d 173d
00000080: b97f 753c e6e3 96bc 76c0 1b3e e2ab 493d
00000090: dd40 b43c 07aa 64bd e63d 01bd 0016 6dbc
000000a0: c9b4 793d 87a0 f6bc de93 a2bd 5595 14bd
000000b0: 0520 893d ef04 8f3b 7bbd d5bd 048f 0abd
000000c0: 33d2 c43d 680f 83bc 94b4 b53d e1e4 973c
000000d0: c82d 613e 9159 a63d 6e26 b1bd 35ff 433d
000000e0: 051f 02bc 81b7 113e c218 47bd 6825 173d
000000f0: 6c79 b53c 756d 863c 4506 da3c 9d83 d5bd
00000100: dee4 0d3d 2921 0a3d 8905 afbc 5d14 ec3a
00000110: 0a36 453d ee53 fbbc 4a8c a23c 05a9 01bc
00000120: bb14 893c daac 983d 1008 823d 4595 aebb
00000130: 23ba 06bd c246 f7bb 8981 02bd 77c7 ffbd
00000140: d727 f4bc d3a4 54bd e8af f43c 6b9b b5bd
00000150: b9a0 b2bd 9613 a43d e862 523d 39b1 2f3e
00000160: 85fc 943d 879c 0abe ed83 583d 3d8d c4ba
00000170: b949 dd3d b7da 8fbc c5ba 913d f7fb 07be
00000180: ed0c 92bc b26f 27bd d9c7 d5bd beb9 47be
00000190: a35d d7bc 8aff 113d 146a fbbd 305f e8bd
000001a0: dacc 44bd 1fc8 883d 635b 1abd 4890 d0bd
000001b0: dd6b afbd f1c2 22bd 20ea 063d 1e96 133c
000001c0: 44b6 d5bd 0dbe 83bd d320 b2bd b8a2 813d
000001d0: 5608 5bbd 6bbc 97bd 18ab 443d f23c ae3c
000001e0: b786 c33b af72 56be 9ed1 9fbd dc02 94bd
000001f0: f389 97bd 0b6a b53d 19f4 02bd cc4f c63d
00000200: 00b8 ffbd 47dd b5bd 7aa5 443d d61e 813d
00000210: 3834 2dbe d8c1 a4bc e4bb 6e3d 8658 dd3c
00000220: b8ae ad3d a303 29bd a8f9 04be 6cc0 eabc
00000230: f4ca 463d d2a0 2c3c ef3e 9fbd 0c2a 223e
00000240: 3c2f 123e 7c11 b1bd 9d03 a8bd 9edb 52bd
00000250: 44e3 453c 6cb1 123e cab4 9ebd 5e7c 02bd
00000260: fc7c 0ebd 1d93 07bd f309 4d3c 570c e63d
00000270: 36c2 db3b 80ce debd 2b4d ea3c a05a 313d
00000280: 7214 a6bc 119f c53d 3741 b73c 2343 0e3d
00000290: b537 9f3d 9161 bebc ee9f d93d c3a2 4bbd
000002a0: 3f75 8fbd 887f 13be 2078 81ba a380 77bd
000002b0: 953f eebc 273c 34bd 0ac6 a7bd 479b e03d
000002c0: dbcc 7bbd a572 02be d455 a53b 9679 6fbd
000002d0: 9f31 833d f7f2 59bd 560d 8abd 68ab 13be
000002e0: 3678 ddbd c596 3ebd 3e4d c2bd 2dce 833a
000002f0: 6050 51be 12fe 513d 1308 893d 1365 823d
00000300: d465 dfbd 684a 15be 4d11 02be e6c0 9bbc
00000310: 44af b8bd d6ca d8bd 7f05 0bbe 0f67 323e
00000320: bde7 e8bb 869d 113d 7f15 ee3b 5fbb b63d
00000330: 974a dd3d c0ca ffbd 7fdb 65bd a989 10bd
00000340: dbaa dcbd 5f11 efbd 8bf6 293d 35d7 8ebd
00000350: bf28 8bbc e4e7 543d afe4 e2bb 88c1 643c
00000360: cb74 d13d 5873 e7bd c8d2 cebd c1af 89bc
00000370: 2987 8a3d 4e9d 37bd ee90 da3d e5a8 29bd
00000380: 0974 3bbd 065a ae3d bb07 8d3d f707 28be
00000390: f0a3 ac3c dd9e 803d e63b 1e3e f660 2a3b
000003a0: 5003 033e c52f 253d 69a5 ba3c bf1c 753d
000003b0: e0a5 9fbc 6bae 5c3d 362a e83c 874d 91bd
000003c0: be55 04ba ccdc aaba cc20 283e 0b2d c2bc
000003d0: dcf1 d7bc 777c 28be e18e 4e3c 318a c43d
000003e0: d3d6 753c 05a6 35bd d287 eb3d a5cd 003e
000003f0: 88f6 8bbd d37a 76bd 2412 82bd a26e c93d

fc1.bias f4 [120]
0.02438507 -0.055210266 -0.020450521 -0.05351432 -0.092414275 0.023382412 -0.112259336 0.014959236
-0.03906304 0.030034712 -0.10071683 -0.007407404 -0.11503106 -0.05305339 0.016999884 -0.07986346
-0.021262098 -0.002031732 -0.15488505 -0.039297655 -0.08345424 -0.045588993 -0.10875138 -0.0619939
0.044578362 0.06610859 0.0036841994 -0.090975806 -0.012236166 -0.09572018 -0.051088925 -0.0073454217
-0.09510502 -0.040067248 -0.050773144 -0.11082347 -0.024607671 -0.06354701 -0.048837833 -0.038042057
-0.14020237 -0.027120186 -0.038815014 -0.084893726 -0.08664074 0.08884396 -0.012226209 -0.10706393
0.103275105 0.028163284 -0.0016669668 -0.048465747 -0.07240244 -0.05686274 -0.017670127 -0.07662966
-0.04143864 -0.09435384 -0.0366938 -0.051343653 0.06209695 0.11670853 0.05521794 -0.060857017
-0.09843914 -0.041349802 -0.09835905 0.016883934 -0.05160011 0.0073330803 -0.06273205 -0.0619405
-0.116823934 -0.034974758 -0.12799473 -0.03178826 -0.018383859 -0.083131 -0.09009857 0.045120545
0.0073581794 -0.07778417 -0.026602399 -0.053302564 -0.019358838 0.025290692 -0.0152275935 -0.08604407
-0.008607739 -0.039696205 0.011877588 -0.0038653582 -0.051896702 -0.12642851 -0.009209438 -0.074733116
0.011695223 -0.040805016 -0.07182828 -0.017175304 0.017758524 -0.0574203 -0.02586057 -0.10333615
-0.069666214 -0.13691993 -0.10203492 -0.118737176 -0.093031205 0.027000822 -0.0722748 -0.06453525
0.0032229337 -0.082094796 0.11474544 -0.042612817 -0.04116732 -0.03831132 -0.08631877 0.02695306
00000000: 33c3 c73c 2924 62bd da87 a7bc d531 5bbd
00000010: b243 bdbd 798c bf3c 39e8 e5bd 9517 753c
00000020: 9100 20bd 5b0b f63c a044 cebd cfb9 f2bb
00000030: 6895 ebbd 834e 59bd 5743 8b3c 748f a3bd
00000040: da2d aebc ce26 05bb 309a 1ebe 94f6 20bd
00000050: 0eea aabd 86bb 3abd 0bb9 debd 51ed 7dbd
00000060: cd97 363d f163 873d 9c72 713b 8651 babd
00000070: 337a 48bc f108 c4bd 9f42 51bd ddb1 f0bb
00000080: 6cc6 c2bd 8e1d 24bd 80f7 4fbd 6af7 e2bd
00000090: 0796 c9bc ef24 82bd 2e0a 48bd fdd1 1bbd
000000a0: 3691 0fbe 272b debc 7efc 1ebd c3dc adbd
000000b0: b370 b1bd d2f3 b53d 7050 48bc 5544 dbbd
000000c0: e681 d33d b0b6 e63c 207e daba 0584 46bd
000000d0: bb47 94bd e8e8 68bd f1c0 90bc 03f0 9cbd
000000e0: 90bb 29bd 963c c1bd 3d4c 16bd b94d 52bd
000000f0: 5f59 7e3d e204 ef3d 352c 623d 3545 79bd
00000100: 769a c9bd 695e 29bd 7870 c9bd 2d50 8a3c
00000110: a35a 53bd 564a f03b a979 80bd 52b5 7dbd
00000120: 6341 efbd b141 0fbd 0d11 03be 6834 02bd
00000130: bf99 96bc 9640 aabd 9985 b8bd 52d0 383d
00000140: e21c f13b 4f4d 9fbd 46ed d9bc ca53 5abd
00000150: 6d96 9ebc 6d2e cf3c 287d 79bc e037 b0bd
00000160: 7907 0dbc 7d98 22bd 379a 423c f351 7dbb
00000170: a391 54bd 7a76 01be 2fe3 16bc ad0d 99bd
00000180: 529d 3f3c 2923 27bd b51a 93bd 39b3 8cbc
00000190: 537a 913c 8c31 6bbd 8cd9 d3bc e7a1 d3bd
000001a0: 29ad 8ebd bd34 0cbe aff7 d0bd 7a2c f3bd
000001b0: 2587 bebd d430 dd3c cf04 94bd 0f2b 84bd
000001c0: db37 533b 5121 a8bd a8ff ea3d c78a 2ebd
000001d0: 109f 28bd 55ec 1cbd e5c7 b0bd aacc dc3c

fc1_bn.weight f4 [120]
0.35343298 0.29447874 0.70817065 0.29495427 0.42762277 0.58157575 0.17313702 0.74260235
0.37322173 0.7870421 0.5088083 0.6089474 0.33165988 0.40383908 0.45335627 0.45949942
0.0876994 0.5991836 0.1366751 0.26015517 0.40756598 0.49025598 0.29706272 0.29994357
0.63447165 0.43805236 0.57911384 0.32079762 0.64348626 0.4929013 0.29774255 0.72231776
0.52988666 0.44077736 0.27321333 0.22173014 0.65699446 0.2920798 0.2719232 0.813374
0.06548583 0.73514885 0.44108844 0.6412536 0.59920716 0.86841995 0.67319745 0.38248357
0.7676174 0.22973764 0.6886583 0.7456377 0.25740314 0.33665588 0.23127623 0.38917834
0.5840291 0.34831253 0.78194773 0.44311273 0.94726795 0.43653208 0.3272108 0.63984567
0.4620839 0.3865432 0.70438576 0.46379223 0.6851201 0.42803195 0.74860126 0.26907474
0.41099188 0.25344217 0.40678203 0.833812 0.83583486 0.32110924 0.4327278 1.0008855
0.25947496 0.62366813 0.7957572 0.7048586 0.80794185 0.70406044 0.60506356 0.22098401
0.464936 0.5312415 0.28940293 0.30032423 0.5254238 0.36379272 0.49471968 0.44722283
0.79502386 0.29707164 0.9031315 0.68133044 0.42890844 0.4436414 0.40959653 0.51676697
0.5407563 0.27062097 0.49117643 0.16432878 0.355768 0.73621076 0.4331825 0.5202968
0.5886075 0.37051758 0.6179079 0.45057717 0.39298075 0.77001953 0.83692163 0.85614765
00000000: 2bf5 b43e ebc5 963e ac4a 353f 3f04 973e
00000010: 5ff1 da3e 26e2 143f d54a 313e 301b 3e3f
00000020: eb16 bf3e 977b 493f 4341 023f fae3 1b3f
00000030: 53cf a93e ffc3 ce3e 501e e83e 8243 eb3e
00000040: be9b b33d 1964 193f 8ff4 0b3e 0f33 853e
00000050: 7dac d03e d502 fb3e 9b18 983e 3492 993e
00000060: bc6c 223f 6648 e03e ce40 143f 963f a43e
00000070: 84bb 243f 8f5d fc3e b671 983e d1e9 383f
00000080: a7a6 073f 92ad e13e 9ee2 8b3e 3a0d 633e
00000090: ca30 283f 7c8b 953e 8539 8b3e 4739 503f
000000a0: 6f1d 863d b732 3c3f 58d6 e13e 3229 243f
000000b0: a465 193f c550 5e3f ab56 2c3f e3d4 c33e
000000c0: 9382 443f 5840 6b3e e94b 303f 1de2 3e3f
000000d0: 58ca 833e 295e ac3e add3 6c3e 6242 c73e
000000e0: ee82 153f 0556 b23e ba2d 483f acdf e23e
000000f0: 2780 723f 2281 df3e 2d88 a73e edcc 233f
00000100: 4396 ec3e fee8 c53e a052 343f 2d76 ed3e
00000110: 0864 2f3f 0127 db3e 55a4 3f3f 2ac4 893e
00000120: 876d d23e 2cc3 813e bc45 d03e b474 553f
00000130: 46f9 553f 6e68 a43e 808e dd3e 041d 803f
00000140: e7d9 843e b7a8 1f3f beb6 4b3f 9d71 343f
00000150: 47d5 4e3f 4e3d 343f 72e5 1a3f a249 623e
00000160: 170c ee3e 71ff 073f 9f2c 943e 19c4 993e
00000170: 2d82 063f 0a43 ba3e e64b fd3e 64fa e43e
00000180: af86 4b3f c619 983e a033 673f ac6b 2e3f
00000190: e399 db3e f724 e33e a3b6 d13e d74a 043f
000001a0: 016f 0a3f d58e 8a3e 7a7b fb3e ce45 283e
000001b0: 3927 b63e 4f78 3c3f 19ca dd3e 2c32 053f
000001c0: fbae 163f 7bb4 bd3e 362f 1e3f 0db2 e63e
000001d0: c634 c93e 0020 453f 7f40 563f 7e2c 5b3f

fc1_bn.bias f4 [120]
-0.05056855 0.022879664 -0.020961829 -0.09820078 0.032232627 -0.0146346055 0.019700529 0.15025482
0.051335182 0.037856244 0.04480795 0.034501925 0.04439595 0.06967675 0.07311735 0.15375666
0.05955983 -0.053359743 0.12411912 0.02509422 7.361513e-05 0.031995554 0.08959523 0.044976257
-0.020698806 0.01966145 -0.026775505 -0.12962942 0.04662635 -0.010628911 0.02820432 0.14628115
-0.053210124 0.073592685 0.048822302 0.08279049 -0.10423586 -0.06734118 0.13252544 -0.014098313
-0.08457508 -0.008884116 -0.068515316 -0.0041634636 -0.10797649 -0.03713941 0.037963912 0.025751447
0.04071962 0.029307501 -0.0233059 -0.06397844 -0.012807532 0.04877044 0.14799407 0.028143957
-0.036223613 -0.0835439 -0.080237396 -0.03302622 0.0858451 0.0926878 -0.004327417 -0.07828051
-0.07584952 -0.019395381 0.0015534564 -0.03645061 0.011498777 0.115903795 0.027986692 0.1725257
-0.049981464 -0.014436546 -0.019111317 -0.069144264 -0.04439212 -0.084818795 0.053028144 0.120631814
-0.029401349 0.1012607 0.03160855 0.060352545 0.040896013 0.055078905 0.0022056724 0.00415016
0.0054000504 0.07421806 0.039184317 -0.07153065 -0.06650374 -0.14117634 0.074027896 0.075412095
0.040093776 -0.016989535 0.094165176 0.0149399685 0.073576644 -0.029875176 -0.011077382 0.06167323
0.10894102 -0.11460633 -0.026381455 0.007773059 0.20069352 0.071348585 -0.07672316 -0.13958502
-0.04616603 -0.051407203 0.052426767 0.06520812 0.019010387 0.025023581 -0.08383796 0.093633704
00000000: f820 4fbd 226e bb3c 24b8 abbc 7e1d c9bd
00000010: 5c06 043d fcc5 6fbc 0163 a13c 66dc 193e
00000020: d744 523d 260f 1b3d 8a88 373d e451 0d3d
00000030: 87d8 353d afb2 8e3d 8dbe 953d 6372 1d3e
00000040: 02f5 733d bf8f 5abd 2a32 fe3d 6592 cd3c
00000050: d261 9a38 c50d 033d b47d b73d 0639 383d
00000060: 8b90 a9bc 0d11 a13c 4e58 dbbc 93bd 04be
00000070: 46fb 3e3d e224 2ebc bf0c e73c baca 153e
00000080: dcf2 59bd c3b7 963d e5f9 473d 0f8e a93d
00000090: 9c79 d5bd 2cea 89bd c0b4 073e 9cfc 66bc
000000a0: b335 adbd af8e 11bc c251 8cbd aa6d 88bb
000000b0: c722 ddbd 7e1f 18bd 0c80 1b3d b3f4 d23c
000000c0: 9ec9 263d 4916 f03c 04ec bebc 2107 83bd
000000d0: afd6 51bc 83c3 473d c28b 173e 288e e63c
000000e0: 365f 14bd 1019 abbd 8153 a4bd 8046 07bd
000000f0: 8ecf af3d 1ad3 bd3d 01cd 8dbb 8851 a0bd
00000100: fe56 9bbd 10e3 9ebc 599d cb3a 3c4d 15bd
00000110: 5e65 3c3c f85e ed3d 5944 e53c 94aa 303e
00000120: 5db9 4cbd 4387 6cbc 568f 9cbc 829b 8dbd
00000130: 83d4 35bd 7ab5 adbd 0a34 593d d00d f73d
00000140: 19db f0bc c561 cf3d f877 013d 3b34 773d
00000150: 9482 273d 6b9a 613d 0b8d 103b 11fe 873b
00000160: e8f2 b03b a3ff 973d bc7f 203d a97e 92bd
00000170: 1d33 88bd 8890 10be f09b 973d a871 9a3d
00000180: 5f39 243d a32d 8bbc acd9 c03d c5c6 743c
00000190: 5aaf 963d c9bc f4bc e87d 35bc 129d 7c3d
000001a0: 781c df3d b9b6 eabd ec1d d8bc 25b5 fe3b
000001b0: 9a82 4d3e 351f 923d 0821 9dbd 60ef 0ebe
000001c0: 9718 3dbd 5c90 52bd 73bd 563d d68b 853d
000001d0: acbb 9b3c 41fe cc3c 3db3 abbd 07c3 bf3d

fc1_bn.running_mean f4 [120]
1.1011126 0.54003733 0.6346319 0.4955847 0.29564425 0.40982392 0.65200883 0.57622164
0.38027784 0.82105756 0.5998257 0.71154815 0.34637725 0.5607967 0.8912061 0.64489615
0.25825247 0.7138267 0.17204234 0.27718738 0.44089666 0.42505634 0.57044965 0.6462048
1.3391722 0.90758085 0.75476485 0.7267723 0.5544804 0.26552626 0.43630168 0.45490974
0.44606674 0.24709828 0.17444623 0.073991604 0.9182474 0.7900162 0.2678685 0.88388526
0.08932089 0.16009392 0.4594595 0.6516526 0.74851316 1.271187 0.677096 0.24339621
0.8680556 1.1151578 1.2117853 0.5801539 0.122941144 0.5110367 0.8316684 0.4862858
0.78852266 0.40126413 0.8907836 0.42695248 0.8186778 2.0516956 1.2573477 0.37876981
0.6626387 0.21773203 0.071666464 0.48016647 0.22968328 0.8418314 0.98004514 0.73521215
0.47660753 1.110215 0.045869153 1.2266401 0.7473918 0.68343693 1.1576672 0.35600233
0.30201083 0.73916966 0.8978994 0.23713368 0.69074607 0.7132973 0.8864658 0.7736369
0.39209083 0.5115075 0.4372263 0.31535938 0.17878705 0.2891599 0.72654027 0.09333555
1.2567817 0.3477786 0.22860688 0.59374034 0.76699555 0.4152708 1.0322087 0.16719392
0.68947977 0.1040686 0.46835476 0.07530629 0.20239559 0.7126816 0.23165527 0.39114666
0.46740186 0.20718075 1.3737907 0.1891121 0.6392157 0.8397618 0.52365214 0.41203845
00000000: 42f1 8c3f e33f 0a3f 3c77 223f 47bd fd3e
00000010: af5e 973e 71d4 d13e 0dea 263f 4383 133f
00000020: c7b3 c23e d430 523f 2d8e 193f 0528 363f
00000030: 5c58 b13e 5f90 0f3f 1526 643f ea17 253f
00000040: ab39 843e 59bd 363f de2b 303e 81eb 8d3e
00000050: 35bd e13e fca0 d93e fd08 123f ae6d 253f
00000060: ff69 ab3f 3857 683f 4538 413f c00d 3a3f
00000070: 6df2 0d3f 0ff3 873e ef62 df3e eee9 e83e
00000080: dc62 e43e 5507 7d3e 08a2 323e e988 973d
00000090: 4312 6b3f 803e 4a3f 0f26 893e 4e46 623f
000000a0: dfed b63d a9ef 233e 473e eb3e b4d2 263f
000000b0: 8f9e 3f3f 41b6 a23f 2a56 2d3f db3c 793e
000000c0: e438 5e3f 7ebd 8e3f c81b 9b3f f784 143f
000000d0: 91c8 fb3d 4dd3 023f 38e8 543f 74fa f83e
000000e0: 9fdc 493f 7e72 cd3e 650a 643f 8499 da3e
000000f0: de94 513f fb4e 0340 c5f0 a03f 1eee c13e
00000100: b1a2 293f 25f5 5e3e dec5 923d 61d8 f53e
00000110: 1832 6b3e 4382 573f 3de4 7a3f dd36 3c3f
00000120: e705 f43e 861b 8e3f 4be1 3b3d 8b02 9d3f
00000130: 1255 3f3f b9f5 2e3f 702e 943f f045 b63e
00000140: 2aa1 9a3e 393a 3d3f bcdc 653f 2cd3 723e
00000150: bcd4 303f a79a 363f 6cef 623f 110d 463f
00000160: 21c0 c83e 28f2 023f 20dc df3e c976 a13e
00000170: f413 373e c40c 943e 8bfe 393f b526 bf3d
00000180: 39de a03f 0910 b23e ec17 6a3e 5eff 173f
00000190: d259 443f 609e d43e 6a1f 843f e234 2b3e
000001a0: bf81 303f eb21 d53d 32cc ef3e 2f3a 9a3d
000001b0: ca40 4f3e 4d72 363f 0a37 6d3e 6044 c83e
000001c0: 4c4f ef3e 3127 543e 60d8 af3f 9aa6 413e
000001d0: a4a3 233f a1fa 563f 110e 063f b4f6 d23e

fc1_bn.running_var f4 [120]
1.6229106 0.90809745 1.4207959 1.0569249 0.6588212 0.8570004 1.1483567 0.9924895
0.7177599 1.3989993 1.08691 1.4233732 0.9083305 0.8099707 2.0633025 1.3854811
0.30830443 1.3855067 0.22714949 0.3996453 1.106627 1.1052536 1.1610026 0.9055705
2.8353348 1.7751338 1.363069 1.8319076 1.1184694 0.5710369 0.6246543 0.8239963
0.9984281 0.3844878 0.2292123 0.08397172 1.8134434 1.2923583 0.28056288 1.6583151
0.110916674 0.20289469 0.83337694 1.5091256 1.726491 2.0901766 1.3283694 0.47863796
1.3436636 1.4260528 1.7690537 1.4216379 0.2270177 0.7118595 1.0868887 0.9495454
1.537097 0.71856934 1.9622183 0.8363485 1.4527454 2.8972979 2.1404 0.72321236
1.5120199 0.2981973 0.102449566 0.9190713 0.4127605 1.063544 1.4635952 1.0354129
0.727435 1.7020378 0.06092097 2.2407532 1.3891124 1.4115077 2.3235316 0.68167377
0.5173304 1.9607373 2.2416632 0.50221807 1.369223 1.0604126 1.3466278 1.3500952
0.550897 1.1457256 0.70819217 0.52768135 0.30032504 0.39756387 1.8023429 0.11821606
3.0705442 0.46482202 0.32156977 1.4472429 1.2802056 0.8193981 1.2439362 0.29083788
1.3474088 0.15105228 0.72974706 0.118205495 0.25934944 1.5116574 0.38562006 0.74721193
0.6245427 0.29210702 2.1478436 0.24826919 1.0949831 1.2871095 1.0688556 1.0017067
00000000: 89bb cf3f 1379 683f a4dc b53f 5149 873f
00000010: 82a8 283f 6164 5b3f 5afd 923f cb13 7e3f
00000020: 1dbf 373f 6912 b33f de1f 8b3f 1831 b63f
00000030: 5988 683f 3d5a 4f3f 260d 0440 7257 b13f
00000040: 14da 9d3e 4958 b13f e099 683e 4f9e cc3e
00000050: f4a5 8d3f f378 8d3f bc9b 943f 78d3 673f
00000060: 2076 3540 9637 e33f 0c79 ae3f f37b ea3f
00000070: 012a 8f3f 792f 123f 58e9 1f3f 6cf1 523f
00000080: fc98 7f3f 96db c43e a1b6 6a3e 5df9 ab3d
00000090: ea1e e83f ff6b a53f f0a5 8f3e ab43 d43f
000000a0: 4828 e33d a0c3 4f3e 3158 553f 072b c13f
000000b0: a8fd dc3f 74c5 0540 0208 aa3f 0910 f53e
000000c0: 2bfd ab3f e688 b63f 5a70 e23f 3bf8 b53f
000000d0: 5477 683e 6d3c 363f 2b1f 8b3f 6815 733f
000000e0: 98bf c43f 29f4 373f f829 fb3f ef1a 563f
000000f0: 90f3 b93f 546d 3940 50fc 0840 7224 393f
00000100: de89 c13f 51ad 983e 14d1 d13d 4248 6b3f
00000110: 5855 d33e 3622 883f 1657 bb3f 6988 843f
00000120: 2e39 3a3f 60dc d93f 4488 793d 8068 0f40
00000130: 6fce b13f 49ac b43f beb4 1440 2c82 2e3f
00000140: c46f 043f 71f9 fa3f 6977 0f40 5d91 003f
00000150: b342 af3f 9abb 873f 4d5e ac3f ebcf ac3f
00000160: 9607 0d3f 23a7 923f 154c 353f 2016 073f
00000170: 34c4 993e 7e8d cb3e 2cb3 e63f 431b f23d
00000180: cc83 4440 27fd ed3e cba4 a43e 413f b93f
00000190: c7dd a33f 13c4 513f 4d39 9f3f b4e8 943e
000001a0: e477 ac3f 73ad 1a3e b4d0 3a3f b915 f23d
000001b0: 73c9 843e fd7d c13f fe6f c53e 4849 3f3f
000001c0: 08e2 1f3f 0d8f 953e 4576 0940 473a 7e3e
000001d0: 6828 8c3f 01c0 a43f 43d0 883f ed37 803f

fc2.weight f4 [84, 120]
-0.1241312 0.0007670772 0.073453195 0.12389773 -0.0655581 -0.12162191 0.07393976 -0.09252269
-0.2858837 -0.11468616 -0.3417236 -0.077334106 -0.09930339 -0.016477557 -0.16888213 -0.15133208
0.0050429706 0.14938855 0.15429783 0.09345042 0.00823314 -0.029652726 -0.08196738 -0.009018692
0.09899586 -0.05643447 0.2300709 0.05445963 0.02400439 -0.13401668 -0.24862452 -0.0205553
-0.1520649 0.06855408 0.05643761 0.057237774 0.05197903 0.12766181 -0.048579186 0.01577178
-0.06197564 0.034817025 0.15398368 0.004618435 -0.20846161 -0.16431285 -0.08821923 -0.086401775
-0.032930315 0.055809803 -0.06603987 -0.348598 -0.0022365353 -0.19522132 0.0842596 -0.04335317
-0.011421722 -0.01556721 0.064206496 0.059312757 -0.15643811 -0.19258977 0.07580258 0.09108519
0.25511602 -0.0037342394 0.03342127 -0.016665423 -0.014520063 0.035228737 -0.09973395 0.12077967
0.06425316 -0.110660054 -0.087602444 0.0051982854 -0.028050505 -0.039628696 0.0020462144 -0.058971237
-0.18756479 -0.190443 -0.05050059 -0.14306909 0.086864784 -0.06806238 0.111973174 0.016498098
0.00017585441 0.020298857 -0.33291867 -0.024167243 -0.17791289 0.064084895 0.014980483 0.033440664
-0.0808157 -0.062250163 -0.03465132 -0.083934 -0.09688356 -0.109364785 -0.018211389 -0.014424073
-0.022932777 -0.19910055 -0.08215685 0.031115418 0.13567589 -0.039483733 -0.18145269 0.022279521
-0.009606759 0.14965233 -0.00076575833 -0.19776829 0.17018817 -0.10927329 0.02663507 -0.11433061
-0.09962359 0.015278498 0.0653724 0.14896767 -0.062338497 -0.08554927 0.05641812 0.06254178
-0.21748962 -0.14106072 -0.07477595 -0.15838529 0.008822547 -0.11057681 -0.0045461324 0.048576325
-0.0451148 -0.19784904 -7.63447e-05 -0.16822131 0.069040954 0.0025505784 0.1492065 -0.17235209
0.11351065 -0.01902277 0.019456685 0.027183028 -0.052220896 -0.044222634 -0.055552885 0.13302104
-0.15891843 0.05269855 0.03745614 0.0363821 -0.0017648948 -0.034445368 -0.21557067 0.0691519
-0.08490522 0.02154114 0.18644519 0.063723385 -0.03956804 -0.022979178 0.03647721 -0.09739149
-0.10874142 -0.09950079 -0.087469734 -0.053168155 0.2796323 0.010328865 0.07612682 -0.19565967
0.036260664 0.19579493 0.062078018 0.04098379 0.019700045 -0.076139614 -0.08886251 -0.08821599
0.09532266 -0.088428535 -0.1538153 -0.19467874 -0.07135633 0.0790493 0.21296805 0.051381357
0.1870888 0.046397157 -0.11727129 -0.00047488342 -0.05649198 0.17182346 -0.012210831 -0.2984391
0.13295686 -0.11258096 -0.27722305 -0.011247127 0.14631365 -0.13008273 0.09329074 0.07088333
0.08127325 -0.13707183 -0.20446403 0.088819474 -0.009887793 0.038877614 0.07546618 -0.056771632
0.057211936 0.025934136 0.08349671 -0.055500418 0.07126825 0.028115928 0.13712437 -0.014671394
0.023611788 -0.20443834 0.07346746 -0.05815569 0.010113416 -0.02712727 -0.11464414 -0.15616256
-0.06920297 0.03518959 -0.114832915 -0.0812277 -0.061899636 -0.07624482 0.03836882 0.052051913
0.016422236 0.19832061 -0.11134813 -0.10590313 0.025599698 -0.09249517 0.14502211 0.0416901
-0.08106113 -0.001249862 0.03838966 0.052787073 -0.17704703 0.033468746 -0.08907149 -0.24532717
00000000: 8038 febd ae15 493a a16e 963d 18be fd3d
00000010: 5343 86bd e814 f9bd bb6d 973d 897c bdbd
00000020: 595f 92be 94e0 eabd 65f6 aebe 5861 9ebd
00000030: 935f cbbd f1fb 86bc 70ef 2cbe ccf6 1abe
00000040: 813f a53b 50f9 183e 4000 1e3e ef62 bf3d
00000050: 4be4 063c 46ea f2bc 84de a7bd 23c3 13bc
00000060: 57be ca3d d527 67bd b597 6b3e 1011 5f3d
00000070: dba4 c43c ab3b 09be 6d97 7ebe 9763 a8bc
00000080: e7b6 1bbe 1566 8c3d 202b 673d 2872 6a3d
00000090: f7e7 543d c7b9 023e f8fa 46bd d233 813c
000000a0: 2bda 7dbd 4c9c 0e3d e6ad 1d3e 3e56 973b
000000b0: f676 55be a141 28be 49ac b4bd 6af3 b0bd
000000c0: f0e1 06bd d298 643d e93f 87bd 707b b2be
000000d0: d692 12bb 19e8 47be 4c90 ac3d 1893 31bd
000000e0: 2d22 3bbc 9c0d 7fbc b27e 833d eff1 723d
000000f0: 5031 20be 4136 45be 623e 9b3d df8a ba3d
00000100: 919e 823e 24ba 74bb bee4 083d ed85 88bc
00000110: 8fe5 6dbc 024c 103d 5041 ccbd 555b f73d
00000120: 2997 833d bda1 e2bd e968 b3bd 6156 aa3b
00000130: 2cca e5bc b351 22bd c819 063b d38b 71bd
00000140: fc10 40be 7d03 43be b5d9 4ebd b480 12be
00000150: 2ae6 b13d 4a64 8bbd 3152 e53d 0527 873c
00000160: 8f65 3839 ca49 a63c 5174 aabe 62fa c5bc
00000170: cc2e 36be f13e 833d b370 753c 14f9 083d
00000180: b482 a5bd 07fa 7ebd 8bee 0dbd 97e5 abbd
00000190: e36a c6bd a5fa dfbd 0d30 95bc f252 6cbc
000001a0: 85dd bbbc 04e1 4bbe da41 a8bd c3e5 fe3c
000001b0: 9fee 0a3e b2b9 21bd bcce 39be 8b83 b63c
000001c0: ab65 1dbc 763e 193e 2cbd 48ba c583 4abe
000001d0: cf45 2e3e adca dfbd ca31 da3c 2b26 eabd
000001e0: 7407 ccbd aa52 7a3c f7e1 853d fb8a 183e
000001f0: a756 7fbd 7534 afbd b016 673d e815 803d
00000200: 99b5 5ebe 3972 10be 2224 99bd c12f 22be
00000210: 728c 103c 1876 e2bd b9f7 94bb f8f7 463d
00000220: 4cca 38bd f098 4abe 401b a0b8 3542 2cbe
00000230: 5865 8d3d 9b27 273b 97c9 183e 117d 30be
00000240: 4678 e83d a4d5 9bbc a063 9f3c f1ae de3c
00000250: 94e5 55bd cb22 35bd 6c8b 63bd ab36 083e
00000260: 83bb 22be 6fda 573d 9c6b 193d 6605 153d
00000270: 0b54 e7ba 9616 0dbd 8fbe 5cbe 839f 8d3d
00000280: cae2 adbd 0b77 b03c 7deb 3e3e 6881 823d
00000290: 1912 22bd d43e bcbc 2069 153d 3175 c7bd
000002a0: d2b3 debd 12c7 cbbd 5523 b3bd dac6 59bd
000002b0: f72b 8f3e 663a 293c 61e8 9b3d 025b 48be
000002c0: 1086 143d 777e 483e 8545 7e3d 9ede 273d
000002d0: fd61 a13c 16ef 9bbd 8cfd b5bd 96aa b4bd
000002e0: 8738 c33d 051a b5bd c281 1dbe dd59 47be
000002f0: 4423 92bd 99e4 a13d 4c14 5a3e 4275 523d
00000300: 3594 3f3e f20a 3e3d ee2b f0bd c6f9 f8b9
00000310: 2264 67bd 7df2 2f3e f00f 48bc 02cd 98be
00000320: d825 083e d990 e6bd 2ef0 8dbe df45 38bc
00000330: 3fd3 153e 6834 05be 370f bf3d 482b 913d
00000340: 9772 a63d 8f5c 0cbe 055f 51be fce6 b53d
00000350: 6900 22bc 223e 1f3d 038e 9a3d 5f89 68bd
00000360: 1057 6a3d d373 d43c 5300 ab3d 6854 63bd
00000370: 17f5 913d 6053 e63c 556a 0c3e 4960 70bc
00000380: 826d c13c 4958 51be 1c76 963d a934 6ebd
00000390: beb2 253c 023a debc 8cca eabd 14e9 1fbe
000003a0: 49ba 8dbd f622 103d 852d ebbd b55a a6bd
000003b0: 798a 7dbd 3f26 9cbd a028 1d3d 6334 553d
000003c0: ed87 863c 8f14 4b3e 7d0a e4bd bde3 d8bd
000003d0: 75b6 d13c 1c6e bdbd ad80 143e 3dc3 2a3d
000003e0: 6103 a6bd 69d2 a3ba 7a3e 1d3d 4237 583d
000003f0: d14b 35be 8616 093d 1d6b b6bd 0c37 7bbe

fc2.bias f4 [84]
0.09380683 0.07116964 0.09865677 -0.024017531 -0.010388094 0.20700768 0.07563511 -0.03395943
0.1121976 0.12417213 0.13127151 0.19834526 -0.00496066 0.071566924 0.13283171 0.08522422
0.07398433 0.07267677 0.09579858 0.14542292 0.03868342 0.08036384 0.05387173 0.08845567
0.10705662 0.32994777 0.16135088 0.14116193 0.10882038 -0.028283069 0.07984068 -0.04450993
0.077680476 0.30541465 0.10615418 0.20425233 0.06521554 0.07494675 0.10607533 -0.0033582917
0.096810855 -0.01707326 -0.012940867 0.17261493 0.022073917 0.20647964 -0.019657953 -0.0030512188
0.12042457 0.106348485 0.16820467 0.026663208 0.14325394 -0.028676407 0.024355726 0.052822787
0.037371412 0.11040843 -0.014045351 0.035336487 0.12255104 0.10938293 0.12495726 0.11905761
0.197861 -0.030024739 0.13398853 0.080260076 0.13591403 0.057678368 0.09411295 0.0409286
-0.085270025 0.13657308 -0.08221232 0.09199475 0.09392461 0.014970368 0.059691012 0.05735398
-0.0046871337 0.046221443 0.034606263 -0.049724802
00000000: cc1d c03d 63c1 913d 900c ca3d 6ac0 c4bc
00000010: d332 2abc d2f9 533e 95e6 9a3d 0b19 0bbd
00000020: dbc7 e53d f54d fe3d 0a6c 063e 051b 4b3e
00000030: 088d a2bb ae91 923d 0905 083e 098a ae3d
00000040: 1985 973d 8fd7 943d 0c32 c43d bfe9 143e
00000050: 8172 1e3d cc95 a43d 9aa8 5c3d 3f28 b53d
00000060: 8040 db3d eaee a83e 2a39 253e c18c 103e
00000070: 38dd de3d e5b1 e7bc 8383 a33d 0b50 36bd
00000080: f116 9f3d 4f5f 9c3e 5d67 d93d 8627 513e
00000090: ba8f 853d af7d 993d 063e d93d c916 5cbb
000000a0: c544 c63d 39dd 8bbc ee05 54bc f8c1 303e
000000b0: 5cd4 b43c 666f 533e b709 a1bc f5f6 47bb
000000c0: 28a1 f63d 3ccd d93d d83d 2c3e cd6c da3c
000000d0: 29b1 123e c9ea eabc a985 c73c b55c 583d
000000e0: c412 193d d11d e23d 791e 66bc febc 103d
000000f0: 0afc fa3d 2804 e03d 98e9 ff3d 7ad4 f33d
00000100: 139c 4a3e 71f6 f5bc 4a34 093e 655f a43d
00000110: 0c2d 0b3e 2740 6c3d 4abe c03d bfa4 273d
00000120: 0da2 aebd d0d9 0b3e ef5e a8bd be67 bc3d
00000130: 8c5b c03d 4646 753c 907e 743d 02ec 6a3d
00000140: 8796 99bb b252 3d3d 4cbf 0d3d 3cac 4bbd

fc2_bn.weight f4 [84]
0.66125596 1.3073102 0.57277936 1.3381754 0.5148103 0.55680525 1.3345428 1.3662163
1.4346648 1.0738007 1.2540003 1.1593446 0.82879674 1.0966096 0.8068514 1.0225474
0.6779172 1.1223838 0.61449724 0.7307115 0.9459026 1.0886786 0.8937087 1.2439606
0.71711046 0.5073734 0.8023584 0.50628483 1.291126 0.5273085 1.4207528 1.1059836
1.192116 1.3131547 1.0214536 0.87174445 1.2747643 0.64376694 0.82650137 1.2856697
0.5782952 0.91752416 1.2979746 0.8732893 0.8144656 0.813836 0.62785643 1.0652446
1.2503871 1.3210773 0.854964 1.2419835 1.3371755 1.2429336 1.0982412 1.268487
0.83515215 0.857961 0.6524694 0.74534976 0.45207524 0.6424151 0.79867566 0.79713964
0.5633181 1.2179377 0.93212193 1.1911912 1.2907182 1.3284961 0.61786985 1.076032
0.90380013 1.2421409 1.1912436 0.9191597 1.1171356 1.224189 1.0903 1.055731
0.41970864 0.99014604 0.9129418 1.2239512
00000000: 1248 293f f155 a73f aba1 123f 5549 ab3f
00000010: 9cca 033f ca8a 0e3f 4cd2 aa3f 2de0 ae3f
00000020: 19a3 b73f 4d72 893f 1583 a03f 6765 943f
00000030: 062c 543f b45d 8c3f d08d 4e3f d5e2 823f
00000040: fb8b 2d3f 46aa 8f3f b14f 1d3f e90f 3b3f
00000050: ac26 723f d259 8b3f 18ca 643f 1a3a 9f3f
00000060: 8d94 373f 39e3 013f 5c67 4d3f e29b 013f
00000070: 9e43 a53f b1fd 063f 3adb b53f df90 8d3f
00000080: 4297 983f 7415 a83f febe 823f a52a 5f3f
00000090: 7a2b a33f e9cd 243f 9895 533f d390 a43f
000000a0: 270b 143f dde2 6a3f 0824 a63f e38f 5f3f
000000b0: d180 503f 8e57 503f 33bb 203f ef59 883f
000000c0: af0c a03f 1019 a93f ecde 5a3f 51f9 9e3f
000000d0: 9128 ab3f 7318 9f3f 2b93 8c3f c85d a23f
000000e0: 88cc 553f 55a3 5b3f 3c08 273f 3ecf 3e3f
000000f0: 6876 e73e 5175 243f 0276 4c3f 5811 4c3f
00000100: 9d35 103f 62e5 9b3f 8b9f 6e3f f478 983f
00000110: 4136 a53f 290c aa3f b82c 1e3f 6bbb 893f
00000120: 725f 673f 79fe 9e3f ac7a 983f 0d4e 6b3f
00000130: 4dfe 8e3f 3ab2 9c3f f38e 8b3f 3222 873f
00000140: 0de4 d63e 367a 7d3f 8eb6 693f 6faa 9c3f

fc2_bn.bias f4 [84]
0.054582745 0.043827735 0.05522701 0.012798442 -0.012975452 0.05512019 0.009799627 0.00076764805
0.02587076 -0.004038308 -0.06288475 0.00454534 0.0015817656 -0.032597516 0.016922135 0.02798631
0.0057440135 -0.067481406 0.036062215 -0.0076249177 0.00028351467 0.04306973 -0.005427425 -0.027928105
-0.011119477 -0.016227461 0.000100123274 0.0042949673 0.073919594 0.05799606 -0.0272802 0.05184202
0.0030914715 0.01592885 0.005050309 0.036628567 0.023497611 -0.020361226 -0.011976405 0.0343672
0.008344972 -0.04126004 -0.053908184 0.022733042 0.04446673 -0.027084613 0.015858335 0.027117768
-0.029401733 0.01979398 -0.0073623457 0.014870601 0.02069613 0.05363222 -0.01843862 -0.002753255
-0.004157157 0.008181234 -0.007120141 0.06176424 0.040372465 -0.0009774135 -0.019043975 -0.012857249
0.04053421 0.023540333 -0.0037553348 0.018161202 0.03939931 -0.046393253 -0.0006987005 -0.022875179
-0.0055229412 0.017552147 0.07559766 0.008390459 0.021034945 0.056804795 0.054966986 0.010660845
0.020656606 -0.030143682 -0.018947814 -0.055116355
00000000: 2892 5f3d b684 333d b835 623d 8eb0 513c
00000010: fd96 54bc b5c5 613d 9d8e 203c fd3b 493a
00000020: ebee d33c c853 84bb b8c9 80bd 13f1 943b
00000030: 3f53 cf3a f984 05bd 4aa0 8a3c 8c43 e53c
00000040: 4738 bc3b b133 8abd f9b5 133d 72da f9bb
00000050: b2a4 9439 e369 303d 8ad8 b1bb 7bc9 e4bc
00000060: 782e 36bc 74ef 84bc 46f9 d138 ccbc 8c3b
00000070: 2863 973d 478d 6d3d ba7a dfbc 4c58 543d
00000080: 499a 4a3b 387d 823c 107d a53b d607 163d
00000090: 107e c03c 96cc a6bc af38 44bc 9fc4 0c3d
000000a0: 59b9 083c 4a00 29bd d4ce 5cbd a53a ba3c
000000b0: bf22 363d 8de0 ddbc 57e9 813c 1526 de3c
000000c0: e7db f0bc fc26 a23c d53f f1bb d2a3 733c
000000d0: ee8a a93c 75ad 5b3d 970c 97bc f46f 34bb
000000e0: c338 88bb 950a 063c 1250 e9bb 80fc 7c3d
000000f0: 995d 253d 8e1c 80ba 1c02 9cbc 36a7 52bc
00000100: 3307 263d a8d7 c03c 101c 76bb cdc6 943c
00000110: 2c61 213d da06 3ebd ff28 37ba ba64 bbbc
00000120: caf9 b4bb 85c9 8f3c f2d2 9a3d 2378 093c
00000130: 7a51 ac3c 25ac 683d 1025 613d d3aa 2e3c
00000140: 0b38 a93c e2ef f6bc 7238 9bbc b0c1 61bd

fc2_bn.running_mean f4 [84]
0.4381843 0.38293123 0.56593895 0.45782706 0.35524788 0.5428998 0.5161371 0.4357843
0.5253483 0.6068973 0.6927423 0.826624 0.37643695 0.5890793 0.6036635 0.6801654
0.67395043 0.41582584 0.5059053 0.7732506 0.8027851 0.6056786 0.36923736 0.41574007
0.82659996 0.66527426 0.8112522 0.8877607 0.61260086 0.38711318 0.5635352 0.3395168
0.58553904 0.80042994 0.51325333 0.5855266 0.744854 0.6867845 0.6583325 0.54938877
0.48371243 0.48169547 0.5314073 0.6181356 0.53302485 0.74106556 0.56511015 0.46857795
0.6582451 0.44390938 0.67088014 0.60114926 0.6581319 0.5770722 0.6150092 0.35316548
0.70044416 0.5825763 0.36053663 0.7674327 0.64014435 0.52806646 0.62974995 0.58321226
0.78135145 0.373647 0.6924308 0.7768528 0.63298905 0.5912348 0.7952149 0.32205236
0.31402534 0.4258115 0.30488777 0.47070277 0.7088792 0.58205426 0.6124341 0.42234194
0.48564693 0.5455217 0.43530157 0.5468837
00000000: b159 e03e 900f c43e 60e1 103f 4f68 ea3e
00000010: 0de3 b53e 7bfb 0a3f 9021 043f 1f1f df3e
00000020: 3a7d 063f 9f5d 1b3f 8f57 313f a19d 533f
00000030: 58bc c03e e7cd 163f b189 1a3f 521f 2e3f
00000040: 0488 2c3f 20e7 d43e 0283 013f c0f3 453f
00000050: 5383 4d3f c10d 1b3f ae0c bd3e e2db d43e
00000060: 0e9c 533f 6a4f 2a3f 39ae 4f3f 4944 633f
00000070: 69d3 1c3f b333 c63e d843 103f 25d5 ad3e
00000080: e3e5 153f fae8 4c3f 9264 033f 12e5 153f
00000090: c0ae 3e3f 1cd1 2f3f 7b88 283f bea4 0c3f
000000a0: 28a9 f73e caa0 f63e 4f0a 083f 223e 1e3f
000000b0: 5174 083f 79b6 3d3f 0fab 103f 73e9 ef3e
000000c0: c082 283f 1748 e33e cdbe 2b3f ebe4 193f
000000d0: 557b 283f 01bb 133f 3e71 1d3f 1bd2 b43e
000000e0: 4f50 333f b823 153f 4298 b83e 7876 443f
000000f0: 80e0 233f 5d2f 073f 4b37 213f 664d 153f
00000100: a606 483f a94e bf3e 2543 313f d3df 463f
00000110: 920b 223f 2a5b 173f 3493 4b3f 0ce4 a43e
00000120: eec7 a03e f703 da3e 401a 9c3e f4ff f03e
00000130: 1b79 353f 8201 153f 7bc8 1c3f 343d d83e
00000140: b7a6 f83e 4fa7 0b3f d9df de3e 9200 0c3f

fc2_bn.running_var f4 [84]
0.28340033 0.26110017 0.45572272 0.33857295 0.2732474 0.4442839 0.41845587 0.40997824
0.32961664 0.70853245 0.7168354 0.6626584 0.34198922 0.47008184 0.63535243 0.8257305
0.4977567 0.28035748 0.3869761 0.7512011 0.7060369 0.5385234 0.31245124 0.2838982
0.782041 0.5312269 0.9267376 1.2489401 0.4722689 0.26355386 0.58590907 0.2346525
0.699807 0.5773567 0.33928663 0.34000912 0.56818086 0.73054147 0.4947963 0.39651522
0.41394398 0.5191931 0.46239716 0.47596204 0.515057 0.56474274 0.4328084 0.40335238
0.6325071 0.34749913 0.4609439 0.5142682 0.5289277 0.59190583 0.602121 0.25207946
0.6668513 0.51055473 0.29443812 0.65003544 0.48961097 0.41322178 0.7090943 0.3951707
0.67203736 0.28564385 0.6671325 0.84627926 0.605426 0.46499723 0.71764773 0.2642623
0.21282469 0.22110467 0.22731668 0.40207326 0.674358 0.6755222 0.49128893 0.33584338
0.49218172 0.50675285 0.37649247 0.64119977
00000000: d919 913e ecae 853e 7d54 e93e 6f59 ad3e
00000010: 15e7 8b3e 2e79 e33e d93f d63e abe8 d13e
00000020: 83c3 a83e 6262 353f 8682 373f fba3 293f
00000030: 3619 af3e 91ae f03e 75a6 223f 1363 533f
00000040: f7d9 fe3e 048b 8f3e bb21 c63e b74e 403f
00000050: d6be 343f abdc 093f 9cf9 9f3e 1b5b 913e
00000060: d733 483f 7cfe 073f ad3e 6d3f 45dd 9f3f
00000070: 3bcd f13e 88f0 863e 23fe 153f bf48 703e
00000080: 8d26 333f a6cd 133f fab6 ad3e ad15 ae3e
00000090: 4d74 113f c404 3b3f f155 fd3e 0b04 cb3e
000000a0: 77f0 d33e d7e9 043f 52bf ec3e 4cb1 f33e
000000b0: c7da 033f fb92 103f 1099 dd3e 3484 ce3e
000000c0: fceb 213f 68eb b13e d700 ec3e 15a7 033f
000000d0: ce67 073f 2487 173f 9a24 1a3f 8f10 813e
000000e0: c4b6 2a3f b7b3 023f 98c0 963e b968 263f
000000f0: 4aae fa3e ce91 d33e 3487 353f d053 ca3e
00000100: a40a 2c3f e93f 923e 32c9 2a3f c2a5 583f
00000110: 33fd 1a3f 1e14 ee3e c3b7 373f 634d 873e
00000120: b7ee 593e 4369 623e b4c5 683e 8cdc cd3e
00000130: baa2 2c3f 06ef 2c3f 398a fb3e aaf3 ab3e
00000140: 3eff fb3e 8eba 013f 9fc3 c03e ab25 243f
